…
 9888/10000 [============================>.] - ETA: 2s
 9920/10000 [============================>.] - ETA: 1s
 9952/10000 [============================>.] - ETA: 1s
 9984/10000 [============================>.] - ETA: 0s
10000/10000 [==============================] - 229s 23ms/step
Loss: 2.955
Accuracy: 0.323
__________________________________________________________________________________________________
Layer (type)                    Output Shape         Param #     Connected to                     
==================================================================================================
data (InputLayer)               (None, 32, 32, 3)    0                                            
__________________________________________________________________________________________________
conv1_zeropadding (ZeroPadding2 (None, 38, 38, 3)    0           data[0][0]                       
__________________________________________________________________________________________________
conv1 (Conv2D)                  (None, 16, 16, 64)   9408        conv1_zeropadding[0][0]          
__________________________________________________________________________________________________
conv1_bn (BatchNormalization)   (None, 16, 16, 64)   256         conv1[0][0]                      
__________________________________________________________________________________________________
conv1_scale (Scale)             (None, 16, 16, 64)   128         conv1_bn[0][0]                   
__________________________________________________________________________________________________
relu1 (Activation)              (None, 16, 16, 64)   0           conv1_scale[0][0]                
__________________________________________________________________________________________________
pool1_zeropadding (ZeroPadding2 (None, 18, 18, 64)   0           relu1[0][0]                      
__________________________________________________________________________________________________
pool1 (MaxPooling2D)            (None, 8, 8, 64)     0           pool1_zeropadding[0][0]          
__________________________________________________________________________________________________
conv2_1_x1_bn (BatchNormalizati (None, 8, 8, 64)     256         pool1[0][0]                      
__________________________________________________________________________________________________
conv2_1_x1_scale (Scale)        (None, 8, 8, 64)     128         conv2_1_x1_bn[0][0]              
__________________________________________________________________________________________________
relu2_1_x1 (Activation)         (None, 8, 8, 64)     0           conv2_1_x1_scale[0][0]           
__________________________________________________________________________________________________
conv2_1_x1 (Conv2D)             (None, 8, 8, 128)    8192        relu2_1_x1[0][0]                 
__________________________________________________________________________________________________
conv2_1_x2_bn (BatchNormalizati (None, 8, 8, 128)    512         conv2_1_x1[0][0]                 
__________________________________________________________________________________________________
conv2_1_x2_scale (Scale)        (None, 8, 8, 128)    256         conv2_1_x2_bn[0][0]              
__________________________________________________________________________________________________
relu2_1_x2 (Activation)         (None, 8, 8, 128)    0           conv2_1_x2_scale[0][0]           
__________________________________________________________________________________________________
conv2_1_x2_zeropadding (ZeroPad (None, 10, 10, 128)  0           relu2_1_x2[0][0]                 
__________________________________________________________________________________________________
conv2_1_x2 (Conv2D)             (None, 8, 8, 32)     36864       conv2_1_x2_zeropadding[0][0]     
__________________________________________________________________________________________________
concat_2_1 (Merge)              (None, 8, 8, 96)     0           pool1[0][0]                      
                                                                 conv2_1_x2[0][0]                 
__________________________________________________________________________________________________
conv2_2_x1_bn (BatchNormalizati (None, 8, 8, 96)     384         concat_2_1[0][0]                 
__________________________________________________________________________________________________
conv2_2_x1_scale (Scale)        (None, 8, 8, 96)     192         conv2_2_x1_bn[0][0]              
__________________________________________________________________________________________________
relu2_2_x1 (Activation)         (None, 8, 8, 96)     0           conv2_2_x1_scale[0][0]           
__________________________________________________________________________________________________
conv2_2_x1 (Conv2D)             (None, 8, 8, 128)    12288       relu2_2_x1[0][0]                 
__________________________________________________________________________________________________
conv2_2_x2_bn (BatchNormalizati (None, 8, 8, 128)    512         conv2_2_x1[0][0]                 
__________________________________________________________________________________________________
conv2_2_x2_scale (Scale)        (None, 8, 8, 128)    256         conv2_2_x2_bn[0][0]              
__________________________________________________________________________________________________
relu2_2_x2 (Activation)         (None, 8, 8, 128)    0           conv2_2_x2_scale[0][0]           
__________________________________________________________________________________________________
conv2_2_x2_zeropadding (ZeroPad (None, 10, 10, 128)  0           relu2_2_x2[0][0]                 
__________________________________________________________________________________________________
conv2_2_x2 (Conv2D)             (None, 8, 8, 32)     36864       conv2_2_x2_zeropadding[0][0]     
__________________________________________________________________________________________________
concat_2_2 (Merge)              (None, 8, 8, 128)    0           concat_2_1[0][0]                 
                                                                 conv2_2_x2[0][0]                 
__________________________________________________________________________________________________
conv2_3_x1_bn (BatchNormalizati (None, 8, 8, 128)    512         concat_2_2[0][0]                 
__________________________________________________________________________________________________
conv2_3_x1_scale (Scale)        (None, 8, 8, 128)    256         conv2_3_x1_bn[0][0]              
__________________________________________________________________________________________________
relu2_3_x1 (Activation)         (None, 8, 8, 128)    0           conv2_3_x1_scale[0][0]           
__________________________________________________________________________________________________
conv2_3_x1 (Conv2D)             (None, 8, 8, 128)    16384       relu2_3_x1[0][0]                 
__________________________________________________________________________________________________
conv2_3_x2_bn (BatchNormalizati (None, 8, 8, 128)    512         conv2_3_x1[0][0]                 
__________________________________________________________________________________________________
conv2_3_x2_scale (Scale)        (None, 8, 8, 128)    256         conv2_3_x2_bn[0][0]              
__________________________________________________________________________________________________
relu2_3_x2 (Activation)         (None, 8, 8, 128)    0           conv2_3_x2_scale[0][0]           
__________________________________________________________________________________________________
conv2_3_x2_zeropadding (ZeroPad (None, 10, 10, 128)  0           relu2_3_x2[0][0]                 
__________________________________________________________________________________________________
conv2_3_x2 (Conv2D)             (None, 8, 8, 32)     36864       conv2_3_x2_zeropadding[0][0]     
__________________________________________________________________________________________________
concat_2_3 (Merge)              (None, 8, 8, 160)    0           concat_2_2[0][0]                 
                                                                 conv2_3_x2[0][0]                 
__________________________________________________________________________________________________
conv2_4_x1_bn (BatchNormalizati (None, 8, 8, 160)    640         concat_2_3[0][0]                 
__________________________________________________________________________________________________
conv2_4_x1_scale (Scale)        (None, 8, 8, 160)    320         conv2_4_x1_bn[0][0]              
__________________________________________________________________________________________________
relu2_4_x1 (Activation)         (None, 8, 8, 160)    0           conv2_4_x1_scale[0][0]           
__________________________________________________________________________________________________
conv2_4_x1 (Conv2D)             (None, 8, 8, 128)    20480       relu2_4_x1[0][0]                 
__________________________________________________________________________________________________
conv2_4_x2_bn (BatchNormalizati (None, 8, 8, 128)    512         conv2_4_x1[0][0]                 
__________________________________________________________________________________________________
conv2_4_x2_scale (Scale)        (None, 8, 8, 128)    256         conv2_4_x2_bn[0][0]              
__________________________________________________________________________________________________
relu2_4_x2 (Activation)         (None, 8, 8, 128)    0           conv2_4_x2_scale[0][0]           
__________________________________________________________________________________________________
conv2_4_x2_zeropadding (ZeroPad (None, 10, 10, 128)  0           relu2_4_x2[0][0]                 
__________________________________________________________________________________________________
conv2_4_x2 (Conv2D)             (None, 8, 8, 32)     36864       conv2_4_x2_zeropadding[0][0]     
__________________________________________________________________________________________________
concat_2_4 (Merge)              (None, 8, 8, 192)    0           concat_2_3[0][0]                 
                                                                 conv2_4_x2[0][0]                 
__________________________________________________________________________________________________
conv2_5_x1_bn (BatchNormalizati (None, 8, 8, 192)    768         concat_2_4[0][0]                 
__________________________________________________________________________________________________
conv2_5_x1_scale (Scale)        (None, 8, 8, 192)    384         conv2_5_x1_bn[0][0]              
__________________________________________________________________________________________________
relu2_5_x1 (Activation)         (None, 8, 8, 192)    0           conv2_5_x1_scale[0][0]           
__________________________________________________________________________________________________
conv2_5_x1 (Conv2D)             (None, 8, 8, 128)    24576       relu2_5_x1[0][0]                 
__________________________________________________________________________________________________
conv2_5_x2_bn (BatchNormalizati (None, 8, 8, 128)    512         conv2_5_x1[0][0]                 
__________________________________________________________________________________________________
conv2_5_x2_scale (Scale)        (None, 8, 8, 128)    256         conv2_5_x2_bn[0][0]              
__________________________________________________________________________________________________
relu2_5_x2 (Activation)         (None, 8, 8, 128)    0           conv2_5_x2_scale[0][0]           
__________________________________________________________________________________________________
conv2_5_x2_zeropadding (ZeroPad (None, 10, 10, 128)  0           relu2_5_x2[0][0]                 
__________________________________________________________________________________________________
conv2_5_x2 (Conv2D)             (None, 8, 8, 32)     36864       conv2_5_x2_zeropadding[0][0]     
__________________________________________________________________________________________________
concat_2_5 (Merge)              (None, 8, 8, 224)    0           concat_2_4[0][0]                 
                                                                 conv2_5_x2[0][0]                 
__________________________________________________________________________________________________
conv2_6_x1_bn (BatchNormalizati (None, 8, 8, 224)    896         concat_2_5[0][0]                 
__________________________________________________________________________________________________
conv2_6_x1_scale (Scale)        (None, 8, 8, 224)    448         conv2_6_x1_bn[0][0]              
__________________________________________________________________________________________________
relu2_6_x1 (Activation)         (None, 8, 8, 224)    0           conv2_6_x1_scale[0][0]           
__________________________________________________________________________________________________
conv2_6_x1 (Conv2D)             (None, 8, 8, 128)    28672       relu2_6_x1[0][0]                 
__________________________________________________________________________________________________
conv2_6_x2_bn (BatchNormalizati (None, 8, 8, 128)    512         conv2_6_x1[0][0]                 
__________________________________________________________________________________________________
conv2_6_x2_scale (Scale)        (None, 8, 8, 128)    256         conv2_6_x2_bn[0][0]              
__________________________________________________________________________________________________
relu2_6_x2 (Activation)         (None, 8, 8, 128)    0           conv2_6_x2_scale[0][0]           
__________________________________________________________________________________________________
conv2_6_x2_zeropadding (ZeroPad (None, 10, 10, 128)  0           relu2_6_x2[0][0]                 
__________________________________________________________________________________________________
conv2_6_x2 (Conv2D)             (None, 8, 8, 32)     36864       conv2_6_x2_zeropadding[0][0]     
__________________________________________________________________________________________________
concat_2_6 (Merge)              (None, 8, 8, 256)    0           concat_2_5[0][0]                 
                                                                 conv2_6_x2[0][0]                 
__________________________________________________________________________________________________
conv2_7_x1_bn (BatchNormalizati (None, 8, 8, 256)    1024        concat_2_6[0][0]                 
__________________________________________________________________________________________________
conv2_7_x1_scale (Scale)        (None, 8, 8, 256)    512         conv2_7_x1_bn[0][0]              
__________________________________________________________________________________________________
relu2_7_x1 (Activation)         (None, 8, 8, 256)    0           conv2_7_x1_scale[0][0]           
__________________________________________________________________________________________________
conv2_7_x1 (Conv2D)             (None, 8, 8, 128)    32768       relu2_7_x1[0][0]                 
__________________________________________________________________________________________________
conv2_7_x2_bn (BatchNormalizati (None, 8, 8, 128)    512         conv2_7_x1[0][0]                 
__________________________________________________________________________________________________
conv2_7_x2_scale (Scale)        (None, 8, 8, 128)    256         conv2_7_x2_bn[0][0]              
__________________________________________________________________________________________________
relu2_7_x2 (Activation)         (None, 8, 8, 128)    0           conv2_7_x2_scale[0][0]           
__________________________________________________________________________________________________
conv2_7_x2_zeropadding (ZeroPad (None, 10, 10, 128)  0           relu2_7_x2[0][0]                 
__________________________________________________________________________________________________
conv2_7_x2 (Conv2D)             (None, 8, 8, 32)     36864       conv2_7_x2_zeropadding[0][0]     
__________________________________________________________________________________________________
concat_2_7 (Merge)              (None, 8, 8, 288)    0           concat_2_6[0][0]                 
                                                                 conv2_7_x2[0][0]                 
__________________________________________________________________________________________________
conv2_8_x1_bn (BatchNormalizati (None, 8, 8, 288)    1152        concat_2_7[0][0]                 
__________________________________________________________________________________________________
conv2_8_x1_scale (Scale)        (None, 8, 8, 288)    576         conv2_8_x1_bn[0][0]              
__________________________________________________________________________________________________
relu2_8_x1 (Activation)         (None, 8, 8, 288)    0           conv2_8_x1_scale[0][0]           
__________________________________________________________________________________________________
conv2_8_x1 (Conv2D)             (None, 8, 8, 128)    36864       relu2_8_x1[0][0]                 
__________________________________________________________________________________________________
conv2_8_x2_bn (BatchNormalizati (None, 8, 8, 128)    512         conv2_8_x1[0][0]                 
__________________________________________________________________________________________________
conv2_8_x2_scale (Scale)        (None, 8, 8, 128)    256         conv2_8_x2_bn[0][0]              
__________________________________________________________________________________________________
relu2_8_x2 (Activation)         (None, 8, 8, 128)    0           conv2_8_x2_scale[0][0]           
__________________________________________________________________________________________________
conv2_8_x2_zeropadding (ZeroPad (None, 10, 10, 128)  0           relu2_8_x2[0][0]                 
__________________________________________________________________________________________________
conv2_8_x2 (Conv2D)             (None, 8, 8, 32)     36864       conv2_8_x2_zeropadding[0][0]     
__________________________________________________________________________________________________
concat_2_8 (Merge)              (None, 8, 8, 320)    0           concat_2_7[0][0]                 
                                                                 conv2_8_x2[0][0]                 
__________________________________________________________________________________________________
conv2_9_x1_bn (BatchNormalizati (None, 8, 8, 320)    1280        concat_2_8[0][0]                 
__________________________________________________________________________________________________
conv2_9_x1_scale (Scale)        (None, 8, 8, 320)    640         conv2_9_x1_bn[0][0]              
__________________________________________________________________________________________________
relu2_9_x1 (Activation)         (None, 8, 8, 320)    0           conv2_9_x1_scale[0][0]           
__________________________________________________________________________________________________
conv2_9_x1 (Conv2D)             (None, 8, 8, 128)    40960       relu2_9_x1[0][0]                 
__________________________________________________________________________________________________
conv2_9_x2_bn (BatchNormalizati (None, 8, 8, 128)    512         conv2_9_x1[0][0]                 
__________________________________________________________________________________________________
conv2_9_x2_scale (Scale)        (None, 8, 8, 128)    256         conv2_9_x2_bn[0][0]              
__________________________________________________________________________________________________
relu2_9_x2 (Activation)         (None, 8, 8, 128)    0           conv2_9_x2_scale[0][0]           
__________________________________________________________________________________________________
conv2_9_x2_zeropadding (ZeroPad (None, 10, 10, 128)  0           relu2_9_x2[0][0]                 
__________________________________________________________________________________________________
conv2_9_x2 (Conv2D)             (None, 8, 8, 32)     36864       conv2_9_x2_zeropadding[0][0]     
__________________________________________________________________________________________________
concat_2_9 (Merge)              (None, 8, 8, 352)    0           concat_2_8[0][0]                 
                                                                 conv2_9_x2[0][0]                 
__________________________________________________________________________________________________
conv2_10_x1_bn (BatchNormalizat (None, 8, 8, 352)    1408        concat_2_9[0][0]                 
__________________________________________________________________________________________________
conv2_10_x1_scale (Scale)       (None, 8, 8, 352)    704         conv2_10_x1_bn[0][0]             
__________________________________________________________________________________________________
relu2_10_x1 (Activation)        (None, 8, 8, 352)    0           conv2_10_x1_scale[0][0]          
__________________________________________________________________________________________________
conv2_10_x1 (Conv2D)            (None, 8, 8, 128)    45056       relu2_10_x1[0][0]                
__________________________________________________________________________________________________
conv2_10_x2_bn (BatchNormalizat (None, 8, 8, 128)    512         conv2_10_x1[0][0]                
__________________________________________________________________________________________________
conv2_10_x2_scale (Scale)       (None, 8, 8, 128)    256         conv2_10_x2_bn[0][0]             
__________________________________________________________________________________________________
relu2_10_x2 (Activation)        (None, 8, 8, 128)    0           conv2_10_x2_scale[0][0]          
__________________________________________________________________________________________________
conv2_10_x2_zeropadding (ZeroPa (None, 10, 10, 128)  0           relu2_10_x2[0][0]                
__________________________________________________________________________________________________
conv2_10_x2 (Conv2D)            (None, 8, 8, 32)     36864       conv2_10_x2_zeropadding[0][0]    
__________________________________________________________________________________________________
concat_2_10 (Merge)             (None, 8, 8, 384)    0           concat_2_9[0][0]                 
                                                                 conv2_10_x2[0][0]                
__________________________________________________________________________________________________
conv2_11_x1_bn (BatchNormalizat (None, 8, 8, 384)    1536        concat_2_10[0][0]                
__________________________________________________________________________________________________
conv2_11_x1_scale (Scale)       (None, 8, 8, 384)    768         conv2_11_x1_bn[0][0]             
__________________________________________________________________________________________________
relu2_11_x1 (Activation)        (None, 8, 8, 384)    0           conv2_11_x1_scale[0][0]          
__________________________________________________________________________________________________
conv2_11_x1 (Conv2D)            (None, 8, 8, 128)    49152       relu2_11_x1[0][0]                
__________________________________________________________________________________________________
conv2_11_x2_bn (BatchNormalizat (None, 8, 8, 128)    512         conv2_11_x1[0][0]                
__________________________________________________________________________________________________
conv2_11_x2_scale (Scale)       (None, 8, 8, 128)    256         conv2_11_x2_bn[0][0]             
__________________________________________________________________________________________________
relu2_11_x2 (Activation)        (None, 8, 8, 128)    0           conv2_11_x2_scale[0][0]          
__________________________________________________________________________________________________
conv2_11_x2_zeropadding (ZeroPa (None, 10, 10, 128)  0           relu2_11_x2[0][0]                
__________________________________________________________________________________________________
conv2_11_x2 (Conv2D)            (None, 8, 8, 32)     36864       conv2_11_x2_zeropadding[0][0]    
__________________________________________________________________________________________________
concat_2_11 (Merge)             (None, 8, 8, 416)    0           concat_2_10[0][0]                
                                                                 conv2_11_x2[0][0]                
__________________________________________________________________________________________________
conv2_12_x1_bn (BatchNormalizat (None, 8, 8, 416)    1664        concat_2_11[0][0]                
__________________________________________________________________________________________________
conv2_12_x1_scale (Scale)       (None, 8, 8, 416)    832         conv2_12_x1_bn[0][0]             
__________________________________________________________________________________________________
relu2_12_x1 (Activation)        (None, 8, 8, 416)    0           conv2_12_x1_scale[0][0]          
__________________________________________________________________________________________________
conv2_12_x1 (Conv2D)            (None, 8, 8, 128)    53248       relu2_12_x1[0][0]                
__________________________________________________________________________________________________
conv2_12_x2_bn (BatchNormalizat (None, 8, 8, 128)    512         conv2_12_x1[0][0]                
__________________________________________________________________________________________________
conv2_12_x2_scale (Scale)       (None, 8, 8, 128)    256         conv2_12_x2_bn[0][0]             
__________________________________________________________________________________________________
relu2_12_x2 (Activation)        (None, 8, 8, 128)    0           conv2_12_x2_scale[0][0]          
__________________________________________________________________________________________________
conv2_12_x2_zeropadding (ZeroPa (None, 10, 10, 128)  0           relu2_12_x2[0][0]                
__________________________________________________________________________________________________
conv2_12_x2 (Conv2D)            (None, 8, 8, 32)     36864       conv2_12_x2_zeropadding[0][0]    
__________________________________________________________________________________________________
concat_2_12 (Merge)             (None, 8, 8, 448)    0           concat_2_11[0][0]                
                                                                 conv2_12_x2[0][0]                
__________________________________________________________________________________________________
conv2_blk_bn (BatchNormalizatio (None, 8, 8, 448)    1792        concat_2_12[0][0]                
__________________________________________________________________________________________________
conv2_blk_scale (Scale)         (None, 8, 8, 448)    896         conv2_blk_bn[0][0]               
__________________________________________________________________________________________________
relu2_blk (Activation)          (None, 8, 8, 448)    0           conv2_blk_scale[0][0]            
__________________________________________________________________________________________________
conv2_blk (Conv2D)              (None, 8, 8, 448)    200704      relu2_blk[0][0]                  
__________________________________________________________________________________________________
pool2 (AveragePooling2D)        (None, 4, 4, 448)    0           conv2_blk[0][0]                  
__________________________________________________________________________________________________
conv3_1_x1_bn (BatchNormalizati (None, 4, 4, 448)    1792        pool2[0][0]                      
__________________________________________________________________________________________________
conv3_1_x1_scale (Scale)        (None, 4, 4, 448)    896         conv3_1_x1_bn[0][0]              
__________________________________________________________________________________________________
relu3_1_x1 (Activation)         (None, 4, 4, 448)    0           conv3_1_x1_scale[0][0]           
__________________________________________________________________________________________________
conv3_1_x1 (Conv2D)             (None, 4, 4, 128)    57344       relu3_1_x1[0][0]                 
__________________________________________________________________________________________________
conv3_1_x2_bn (BatchNormalizati (None, 4, 4, 128)    512         conv3_1_x1[0][0]                 
__________________________________________________________________________________________________
conv3_1_x2_scale (Scale)        (None, 4, 4, 128)    256         conv3_1_x2_bn[0][0]              
__________________________________________________________________________________________________
relu3_1_x2 (Activation)         (None, 4, 4, 128)    0           conv3_1_x2_scale[0][0]           
__________________________________________________________________________________________________
conv3_1_x2_zeropadding (ZeroPad (None, 6, 6, 128)    0           relu3_1_x2[0][0]                 
__________________________________________________________________________________________________
conv3_1_x2 (Conv2D)             (None, 4, 4, 32)     36864       conv3_1_x2_zeropadding[0][0]     
__________________________________________________________________________________________________
concat_3_1 (Merge)              (None, 4, 4, 480)    0           pool2[0][0]                      
                                                                 conv3_1_x2[0][0]                 
__________________________________________________________________________________________________
conv3_2_x1_bn (BatchNormalizati (None, 4, 4, 480)    1920        concat_3_1[0][0]                 
__________________________________________________________________________________________________
conv3_2_x1_scale (Scale)        (None, 4, 4, 480)    960         conv3_2_x1_bn[0][0]              
__________________________________________________________________________________________________
relu3_2_x1 (Activation)         (None, 4, 4, 480)    0           conv3_2_x1_scale[0][0]           
__________________________________________________________________________________________________
conv3_2_x1 (Conv2D)             (None, 4, 4, 128)    61440       relu3_2_x1[0][0]                 
__________________________________________________________________________________________________
conv3_2_x2_bn (BatchNormalizati (None, 4, 4, 128)    512         conv3_2_x1[0][0]                 
__________________________________________________________________________________________________
conv3_2_x2_scale (Scale)        (None, 4, 4, 128)    256         conv3_2_x2_bn[0][0]              
__________________________________________________________________________________________________
relu3_2_x2 (Activation)         (None, 4, 4, 128)    0           conv3_2_x2_scale[0][0]           
__________________________________________________________________________________________________
conv3_2_x2_zeropadding (ZeroPad (None, 6, 6, 128)    0           relu3_2_x2[0][0]                 
__________________________________________________________________________________________________
conv3_2_x2 (Conv2D)             (None, 4, 4, 32)     36864       conv3_2_x2_zeropadding[0][0]     
__________________________________________________________________________________________________
concat_3_2 (Merge)              (None, 4, 4, 512)    0           concat_3_1[0][0]                 
                                                                 conv3_2_x2[0][0]                 
__________________________________________________________________________________________________
conv3_3_x1_bn (BatchNormalizati (None, 4, 4, 512)    2048        concat_3_2[0][0]                 
__________________________________________________________________________________________________
conv3_3_x1_scale (Scale)        (None, 4, 4, 512)    1024        conv3_3_x1_bn[0][0]              
__________________________________________________________________________________________________
relu3_3_x1 (Activation)         (None, 4, 4, 512)    0           conv3_3_x1_scale[0][0]           
__________________________________________________________________________________________________
conv3_3_x1 (Conv2D)             (None, 4, 4, 128)    65536       relu3_3_x1[0][0]                 
__________________________________________________________________________________________________
conv3_3_x2_bn (BatchNormalizati (None, 4, 4, 128)    512         conv3_3_x1[0][0]                 
__________________________________________________________________________________________________
conv3_3_x2_scale (Scale)        (None, 4, 4, 128)    256         conv3_3_x2_bn[0][0]              
__________________________________________________________________________________________________
relu3_3_x2 (Activation)         (None, 4, 4, 128)    0           conv3_3_x2_scale[0][0]           
__________________________________________________________________________________________________
conv3_3_x2_zeropadding (ZeroPad (None, 6, 6, 128)    0           relu3_3_x2[0][0]                 
__________________________________________________________________________________________________
conv3_3_x2 (Conv2D)             (None, 4, 4, 32)     36864       conv3_3_x2_zeropadding[0][0]     
__________________________________________________________________________________________________
concat_3_3 (Merge)              (None, 4, 4, 544)    0           concat_3_2[0][0]                 
                                                                 conv3_3_x2[0][0]                 
__________________________________________________________________________________________________
conv3_4_x1_bn (BatchNormalizati (None, 4, 4, 544)    2176        concat_3_3[0][0]                 
__________________________________________________________________________________________________
conv3_4_x1_scale (Scale)        (None, 4, 4, 544)    1088        conv3_4_x1_bn[0][0]              
__________________________________________________________________________________________________
relu3_4_x1 (Activation)         (None, 4, 4, 544)    0           conv3_4_x1_scale[0][0]           
__________________________________________________________________________________________________
conv3_4_x1 (Conv2D)             (None, 4, 4, 128)    69632       relu3_4_x1[0][0]                 
__________________________________________________________________________________________________
conv3_4_x2_bn (BatchNormalizati (None, 4, 4, 128)    512         conv3_4_x1[0][0]                 
__________________________________________________________________________________________________
conv3_4_x2_scale (Scale)        (None, 4, 4, 128)    256         conv3_4_x2_bn[0][0]              
__________________________________________________________________________________________________
relu3_4_x2 (Activation)         (None, 4, 4, 128)    0           conv3_4_x2_scale[0][0]           
__________________________________________________________________________________________________
conv3_4_x2_zeropadding (ZeroPad (None, 6, 6, 128)    0           relu3_4_x2[0][0]                 
__________________________________________________________________________________________________
conv3_4_x2 (Conv2D)             (None, 4, 4, 32)     36864       conv3_4_x2_zeropadding[0][0]     
__________________________________________________________________________________________________
concat_3_4 (Merge)              (None, 4, 4, 576)    0           concat_3_3[0][0]                 
                                                                 conv3_4_x2[0][0]                 
__________________________________________________________________________________________________
conv3_5_x1_bn (BatchNormalizati (None, 4, 4, 576)    2304        concat_3_4[0][0]                 
__________________________________________________________________________________________________
conv3_5_x1_scale (Scale)        (None, 4, 4, 576)    1152        conv3_5_x1_bn[0][0]              
__________________________________________________________________________________________________
relu3_5_x1 (Activation)         (None, 4, 4, 576)    0           conv3_5_x1_scale[0][0]           
__________________________________________________________________________________________________
conv3_5_x1 (Conv2D)             (None, 4, 4, 128)    73728       relu3_5_x1[0][0]                 
__________________________________________________________________________________________________
conv3_5_x2_bn (BatchNormalizati (None, 4, 4, 128)    512         conv3_5_x1[0][0]                 
__________________________________________________________________________________________________
conv3_5_x2_scale (Scale)        (None, 4, 4, 128)    256         conv3_5_x2_bn[0][0]              
__________________________________________________________________________________________________
relu3_5_x2 (Activation)         (None, 4, 4, 128)    0           conv3_5_x2_scale[0][0]           
__________________________________________________________________________________________________
conv3_5_x2_zeropadding (ZeroPad (None, 6, 6, 128)    0           relu3_5_x2[0][0]                 
__________________________________________________________________________________________________
conv3_5_x2 (Conv2D)             (None, 4, 4, 32)     36864       conv3_5_x2_zeropadding[0][0]     
__________________________________________________________________________________________________
concat_3_5 (Merge)              (None, 4, 4, 608)    0           concat_3_4[0][0]                 
                                                                 conv3_5_x2[0][0]                 
__________________________________________________________________________________________________
conv3_6_x1_bn (BatchNormalizati (None, 4, 4, 608)    2432        concat_3_5[0][0]                 
__________________________________________________________________________________________________
conv3_6_x1_scale (Scale)        (None, 4, 4, 608)    1216        conv3_6_x1_bn[0][0]              
__________________________________________________________________________________________________
relu3_6_x1 (Activation)         (None, 4, 4, 608)    0           conv3_6_x1_scale[0][0]           
__________________________________________________________________________________________________
conv3_6_x1 (Conv2D)             (None, 4, 4, 128)    77824       relu3_6_x1[0][0]                 
__________________________________________________________________________________________________
conv3_6_x2_bn (BatchNormalizati (None, 4, 4, 128)    512         conv3_6_x1[0][0]                 
__________________________________________________________________________________________________
conv3_6_x2_scale (Scale)        (None, 4, 4, 128)    256         conv3_6_x2_bn[0][0]              
__________________________________________________________________________________________________
relu3_6_x2 (Activation)         (None, 4, 4, 128)    0           conv3_6_x2_scale[0][0]           
__________________________________________________________________________________________________
conv3_6_x2_zeropadding (ZeroPad (None, 6, 6, 128)    0           relu3_6_x2[0][0]                 
__________________________________________________________________________________________________
conv3_6_x2 (Conv2D)             (None, 4, 4, 32)     36864       conv3_6_x2_zeropadding[0][0]     
__________________________________________________________________________________________________
concat_3_6 (Merge)              (None, 4, 4, 640)    0           concat_3_5[0][0]                 
                                                                 conv3_6_x2[0][0]                 
__________________________________________________________________________________________________
conv3_7_x1_bn (BatchNormalizati (None, 4, 4, 640)    2560        concat_3_6[0][0]                 
__________________________________________________________________________________________________
conv3_7_x1_scale (Scale)        (None, 4, 4, 640)    1280        conv3_7_x1_bn[0][0]              
__________________________________________________________________________________________________
relu3_7_x1 (Activation)         (None, 4, 4, 640)    0           conv3_7_x1_scale[0][0]           
__________________________________________________________________________________________________
conv3_7_x1 (Conv2D)             (None, 4, 4, 128)    81920       relu3_7_x1[0][0]                 
__________________________________________________________________________________________________
conv3_7_x2_bn (BatchNormalizati (None, 4, 4, 128)    512         conv3_7_x1[0][0]                 
__________________________________________________________________________________________________
conv3_7_x2_scale (Scale)        (None, 4, 4, 128)    256         conv3_7_x2_bn[0][0]              
__________________________________________________________________________________________________
relu3_7_x2 (Activation)         (None, 4, 4, 128)    0           conv3_7_x2_scale[0][0]           
__________________________________________________________________________________________________
conv3_7_x2_zeropadding (ZeroPad (None, 6, 6, 128)    0           relu3_7_x2[0][0]                 
__________________________________________________________________________________________________
conv3_7_x2 (Conv2D)             (None, 4, 4, 32)     36864       conv3_7_x2_zeropadding[0][0]     
__________________________________________________________________________________________________
concat_3_7 (Merge)              (None, 4, 4, 672)    0           concat_3_6[0][0]                 
                                                                 conv3_7_x2[0][0]                 
__________________________________________________________________________________________________
conv3_8_x1_bn (BatchNormalizati (None, 4, 4, 672)    2688        concat_3_7[0][0]                 
__________________________________________________________________________________________________
conv3_8_x1_scale (Scale)        (None, 4, 4, 672)    1344        conv3_8_x1_bn[0][0]              
__________________________________________________________________________________________________
relu3_8_x1 (Activation)         (None, 4, 4, 672)    0           conv3_8_x1_scale[0][0]           
__________________________________________________________________________________________________
conv3_8_x1 (Conv2D)             (None, 4, 4, 128)    86016       relu3_8_x1[0][0]                 
__________________________________________________________________________________________________
conv3_8_x2_bn (BatchNormalizati (None, 4, 4, 128)    512         conv3_8_x1[0][0]                 
__________________________________________________________________________________________________
conv3_8_x2_scale (Scale)        (None, 4, 4, 128)    256         conv3_8_x2_bn[0][0]              
__________________________________________________________________________________________________
relu3_8_x2 (Activation)         (None, 4, 4, 128)    0           conv3_8_x2_scale[0][0]           
__________________________________________________________________________________________________
conv3_8_x2_zeropadding (ZeroPad (None, 6, 6, 128)    0           relu3_8_x2[0][0]                 
__________________________________________________________________________________________________
conv3_8_x2 (Conv2D)             (None, 4, 4, 32)     36864       conv3_8_x2_zeropadding[0][0]     
__________________________________________________________________________________________________
concat_3_8 (Merge)              (None, 4, 4, 704)    0           concat_3_7[0][0]                 
                                                                 conv3_8_x2[0][0]                 
__________________________________________________________________________________________________
conv3_9_x1_bn (BatchNormalizati (None, 4, 4, 704)    2816        concat_3_8[0][0]                 
__________________________________________________________________________________________________
conv3_9_x1_scale (Scale)        (None, 4, 4, 704)    1408        conv3_9_x1_bn[0][0]              
__________________________________________________________________________________________________
relu3_9_x1 (Activation)         (None, 4, 4, 704)    0           conv3_9_x1_scale[0][0]           
__________________________________________________________________________________________________
conv3_9_x1 (Conv2D)             (None, 4, 4, 128)    90112       relu3_9_x1[0][0]                 
__________________________________________________________________________________________________
conv3_9_x2_bn (BatchNormalizati (None, 4, 4, 128)    512         conv3_9_x1[0][0]                 
__________________________________________________________________________________________________
conv3_9_x2_scale (Scale)        (None, 4, 4, 128)    256         conv3_9_x2_bn[0][0]              
__________________________________________________________________________________________________
relu3_9_x2 (Activation)         (None, 4, 4, 128)    0           conv3_9_x2_scale[0][0]           
__________________________________________________________________________________________________
conv3_9_x2_zeropadding (ZeroPad (None, 6, 6, 128)    0           relu3_9_x2[0][0]                 
__________________________________________________________________________________________________
conv3_9_x2 (Conv2D)             (None, 4, 4, 32)     36864       conv3_9_x2_zeropadding[0][0]     
__________________________________________________________________________________________________
concat_3_9 (Merge)              (None, 4, 4, 736)    0           concat_3_8[0][0]                 
                                                                 conv3_9_x2[0][0]                 
__________________________________________________________________________________________________
conv3_10_x1_bn (BatchNormalizat (None, 4, 4, 736)    2944        concat_3_9[0][0]                 
__________________________________________________________________________________________________
conv3_10_x1_scale (Scale)       (None, 4, 4, 736)    1472        conv3_10_x1_bn[0][0]             
__________________________________________________________________________________________________
relu3_10_x1 (Activation)        (None, 4, 4, 736)    0           conv3_10_x1_scale[0][0]          
__________________________________________________________________________________________________
conv3_10_x1 (Conv2D)            (None, 4, 4, 128)    94208       relu3_10_x1[0][0]                
__________________________________________________________________________________________________
conv3_10_x2_bn (BatchNormalizat (None, 4, 4, 128)    512         conv3_10_x1[0][0]                
__________________________________________________________________________________________________
conv3_10_x2_scale (Scale)       (None, 4, 4, 128)    256         conv3_10_x2_bn[0][0]             
__________________________________________________________________________________________________
relu3_10_x2 (Activation)        (None, 4, 4, 128)    0           conv3_10_x2_scale[0][0]          
__________________________________________________________________________________________________
conv3_10_x2_zeropadding (ZeroPa (None, 6, 6, 128)    0           relu3_10_x2[0][0]                
__________________________________________________________________________________________________
conv3_10_x2 (Conv2D)            (None, 4, 4, 32)     36864       conv3_10_x2_zeropadding[0][0]    
__________________________________________________________________________________________________
concat_3_10 (Merge)             (None, 4, 4, 768)    0           concat_3_9[0][0]                 
                                                                 conv3_10_x2[0][0]                
__________________________________________________________________________________________________
conv3_11_x1_bn (BatchNormalizat (None, 4, 4, 768)    3072        concat_3_10[0][0]                
__________________________________________________________________________________________________
conv3_11_x1_scale (Scale)       (None, 4, 4, 768)    1536        conv3_11_x1_bn[0][0]             
__________________________________________________________________________________________________
relu3_11_x1 (Activation)        (None, 4, 4, 768)    0           conv3_11_x1_scale[0][0]          
__________________________________________________________________________________________________
conv3_11_x1 (Conv2D)            (None, 4, 4, 128)    98304       relu3_11_x1[0][0]                
__________________________________________________________________________________________________
conv3_11_x2_bn (BatchNormalizat (None, 4, 4, 128)    512         conv3_11_x1[0][0]                
__________________________________________________________________________________________________
conv3_11_x2_scale (Scale)       (None, 4, 4, 128)    256         conv3_11_x2_bn[0][0]             
__________________________________________________________________________________________________
relu3_11_x2 (Activation)        (None, 4, 4, 128)    0           conv3_11_x2_scale[0][0]          
__________________________________________________________________________________________________
conv3_11_x2_zeropadding (ZeroPa (None, 6, 6, 128)    0           relu3_11_x2[0][0]                
__________________________________________________________________________________________________
conv3_11_x2 (Conv2D)            (None, 4, 4, 32)     36864       conv3_11_x2_zeropadding[0][0]    
__________________________________________________________________________________________________
concat_3_11 (Merge)             (None, 4, 4, 800)    0           concat_3_10[0][0]                
                                                                 conv3_11_x2[0][0]                
__________________________________________________________________________________________________
conv3_12_x1_bn (BatchNormalizat (None, 4, 4, 800)    3200        concat_3_11[0][0]                
__________________________________________________________________________________________________
conv3_12_x1_scale (Scale)       (None, 4, 4, 800)    1600        conv3_12_x1_bn[0][0]             
__________________________________________________________________________________________________
relu3_12_x1 (Activation)        (None, 4, 4, 800)    0           conv3_12_x1_scale[0][0]          
__________________________________________________________________________________________________
conv3_12_x1 (Conv2D)            (None, 4, 4, 128)    102400      relu3_12_x1[0][0]                
__________________________________________________________________________________________________
conv3_12_x2_bn (BatchNormalizat (None, 4, 4, 128)    512         conv3_12_x1[0][0]                
__________________________________________________________________________________________________
conv3_12_x2_scale (Scale)       (None, 4, 4, 128)    256         conv3_12_x2_bn[0][0]             
__________________________________________________________________________________________________
relu3_12_x2 (Activation)        (None, 4, 4, 128)    0           conv3_12_x2_scale[0][0]          
__________________________________________________________________________________________________
conv3_12_x2_zeropadding (ZeroPa (None, 6, 6, 128)    0           relu3_12_x2[0][0]                
__________________________________________________________________________________________________
conv3_12_x2 (Conv2D)            (None, 4, 4, 32)     36864       conv3_12_x2_zeropadding[0][0]    
__________________________________________________________________________________________________
concat_3_12 (Merge)             (None, 4, 4, 832)    0           concat_3_11[0][0]                
                                                                 conv3_12_x2[0][0]                
__________________________________________________________________________________________________
conv3_blk_bn (BatchNormalizatio (None, 4, 4, 832)    3328        concat_3_12[0][0]                
__________________________________________________________________________________________________
conv3_blk_scale (Scale)         (None, 4, 4, 832)    1664        conv3_blk_bn[0][0]               
__________________________________________________________________________________________________
relu3_blk (Activation)          (None, 4, 4, 832)    0           conv3_blk_scale[0][0]            
__________________________________________________________________________________________________
conv3_blk (Conv2D)              (None, 4, 4, 832)    692224      relu3_blk[0][0]                  
__________________________________________________________________________________________________
pool3 (AveragePooling2D)        (None, 2, 2, 832)    0           conv3_blk[0][0]                  
__________________________________________________________________________________________________
conv4_1_x1_bn (BatchNormalizati (None, 2, 2, 832)    3328        pool3[0][0]                      
__________________________________________________________________________________________________
conv4_1_x1_scale (Scale)        (None, 2, 2, 832)    1664        conv4_1_x1_bn[0][0]              
__________________________________________________________________________________________________
relu4_1_x1 (Activation)         (None, 2, 2, 832)    0           conv4_1_x1_scale[0][0]           
__________________________________________________________________________________________________
conv4_1_x1 (Conv2D)             (None, 2, 2, 128)    106496      relu4_1_x1[0][0]                 
__________________________________________________________________________________________________
conv4_1_x2_bn (BatchNormalizati (None, 2, 2, 128)    512         conv4_1_x1[0][0]                 
__________________________________________________________________________________________________
conv4_1_x2_scale (Scale)        (None, 2, 2, 128)    256         conv4_1_x2_bn[0][0]              
__________________________________________________________________________________________________
relu4_1_x2 (Activation)         (None, 2, 2, 128)    0           conv4_1_x2_scale[0][0]           
__________________________________________________________________________________________________
conv4_1_x2_zeropadding (ZeroPad (None, 4, 4, 128)    0           relu4_1_x2[0][0]                 
__________________________________________________________________________________________________
conv4_1_x2 (Conv2D)             (None, 2, 2, 32)     36864       conv4_1_x2_zeropadding[0][0]     
__________________________________________________________________________________________________
concat_4_1 (Merge)              (None, 2, 2, 864)    0           pool3[0][0]                      
                                                                 conv4_1_x2[0][0]                 
__________________________________________________________________________________________________
conv4_2_x1_bn (BatchNormalizati (None, 2, 2, 864)    3456        concat_4_1[0][0]                 
__________________________________________________________________________________________________
conv4_2_x1_scale (Scale)        (None, 2, 2, 864)    1728        conv4_2_x1_bn[0][0]              
__________________________________________________________________________________________________
relu4_2_x1 (Activation)         (None, 2, 2, 864)    0           conv4_2_x1_scale[0][0]           
__________________________________________________________________________________________________
conv4_2_x1 (Conv2D)             (None, 2, 2, 128)    110592      relu4_2_x1[0][0]                 
__________________________________________________________________________________________________
conv4_2_x2_bn (BatchNormalizati (None, 2, 2, 128)    512         conv4_2_x1[0][0]                 
__________________________________________________________________________________________________
conv4_2_x2_scale (Scale)        (None, 2, 2, 128)    256         conv4_2_x2_bn[0][0]              
__________________________________________________________________________________________________
relu4_2_x2 (Activation)         (None, 2, 2, 128)    0           conv4_2_x2_scale[0][0]           
__________________________________________________________________________________________________
conv4_2_x2_zeropadding (ZeroPad (None, 4, 4, 128)    0           relu4_2_x2[0][0]                 
__________________________________________________________________________________________________
conv4_2_x2 (Conv2D)             (None, 2, 2, 32)     36864       conv4_2_x2_zeropadding[0][0]     
__________________________________________________________________________________________________
concat_4_2 (Merge)              (None, 2, 2, 896)    0           concat_4_1[0][0]                 
                                                                 conv4_2_x2[0][0]                 
__________________________________________________________________________________________________
conv4_3_x1_bn (BatchNormalizati (None, 2, 2, 896)    3584        concat_4_2[0][0]                 
__________________________________________________________________________________________________
conv4_3_x1_scale (Scale)        (None, 2, 2, 896)    1792        conv4_3_x1_bn[0][0]              
__________________________________________________________________________________________________
relu4_3_x1 (Activation)         (None, 2, 2, 896)    0           conv4_3_x1_scale[0][0]           
__________________________________________________________________________________________________
conv4_3_x1 (Conv2D)             (None, 2, 2, 128)    114688      relu4_3_x1[0][0]                 
__________________________________________________________________________________________________
conv4_3_x2_bn (BatchNormalizati (None, 2, 2, 128)    512         conv4_3_x1[0][0]                 
__________________________________________________________________________________________________
conv4_3_x2_scale (Scale)        (None, 2, 2, 128)    256         conv4_3_x2_bn[0][0]              
__________________________________________________________________________________________________
relu4_3_x2 (Activation)         (None, 2, 2, 128)    0           conv4_3_x2_scale[0][0]           
__________________________________________________________________________________________________
conv4_3_x2_zeropadding (ZeroPad (None, 4, 4, 128)    0           relu4_3_x2[0][0]                 
__________________________________________________________________________________________________
conv4_3_x2 (Conv2D)             (None, 2, 2, 32)     36864       conv4_3_x2_zeropadding[0][0]     
__________________________________________________________________________________________________
concat_4_3 (Merge)              (None, 2, 2, 928)    0           concat_4_2[0][0]                 
                                                                 conv4_3_x2[0][0]                 
__________________________________________________________________________________________________
conv4_4_x1_bn (BatchNormalizati (None, 2, 2, 928)    3712        concat_4_3[0][0]                 
__________________________________________________________________________________________________
conv4_4_x1_scale (Scale)        (None, 2, 2, 928)    1856        conv4_4_x1_bn[0][0]              
__________________________________________________________________________________________________
relu4_4_x1 (Activation)         (None, 2, 2, 928)    0           conv4_4_x1_scale[0][0]           
__________________________________________________________________________________________________
conv4_4_x1 (Conv2D)             (None, 2, 2, 128)    118784      relu4_4_x1[0][0]                 
__________________________________________________________________________________________________
conv4_4_x2_bn (BatchNormalizati (None, 2, 2, 128)    512         conv4_4_x1[0][0]                 
__________________________________________________________________________________________________
conv4_4_x2_scale (Scale)        (None, 2, 2, 128)    256         conv4_4_x2_bn[0][0]              
__________________________________________________________________________________________________
relu4_4_x2 (Activation)         (None, 2, 2, 128)    0           conv4_4_x2_scale[0][0]           
__________________________________________________________________________________________________
conv4_4_x2_zeropadding (ZeroPad (None, 4, 4, 128)    0           relu4_4_x2[0][0]                 
__________________________________________________________________________________________________
conv4_4_x2 (Conv2D)             (None, 2, 2, 32)     36864       conv4_4_x2_zeropadding[0][0]     
__________________________________________________________________________________________________
concat_4_4 (Merge)              (None, 2, 2, 960)    0           concat_4_3[0][0]                 
                                                                 conv4_4_x2[0][0]                 
__________________________________________________________________________________________________
conv4_5_x1_bn (BatchNormalizati (None, 2, 2, 960)    3840        concat_4_4[0][0]                 
__________________________________________________________________________________________________
conv4_5_x1_scale (Scale)        (None, 2, 2, 960)    1920        conv4_5_x1_bn[0][0]              
__________________________________________________________________________________________________
relu4_5_x1 (Activation)         (None, 2, 2, 960)    0           conv4_5_x1_scale[0][0]           
__________________________________________________________________________________________________
conv4_5_x1 (Conv2D)             (None, 2, 2, 128)    122880      relu4_5_x1[0][0]                 
__________________________________________________________________________________________________
conv4_5_x2_bn (BatchNormalizati (None, 2, 2, 128)    512         conv4_5_x1[0][0]                 
__________________________________________________________________________________________________
conv4_5_x2_scale (Scale)        (None, 2, 2, 128)    256         conv4_5_x2_bn[0][0]              
__________________________________________________________________________________________________
relu4_5_x2 (Activation)         (None, 2, 2, 128)    0           conv4_5_x2_scale[0][0]           
__________________________________________________________________________________________________
conv4_5_x2_zeropadding (ZeroPad (None, 4, 4, 128)    0           relu4_5_x2[0][0]                 
__________________________________________________________________________________________________
conv4_5_x2 (Conv2D)             (None, 2, 2, 32)     36864       conv4_5_x2_zeropadding[0][0]     
__________________________________________________________________________________________________
concat_4_5 (Merge)              (None, 2, 2, 992)    0           concat_4_4[0][0]                 
                                                                 conv4_5_x2[0][0]                 
__________________________________________________________________________________________________
conv4_6_x1_bn (BatchNormalizati (None, 2, 2, 992)    3968        concat_4_5[0][0]                 
__________________________________________________________________________________________________
conv4_6_x1_scale (Scale)        (None, 2, 2, 992)    1984        conv4_6_x1_bn[0][0]              
__________________________________________________________________________________________________
relu4_6_x1 (Activation)         (None, 2, 2, 992)    0           conv4_6_x1_scale[0][0]           
__________________________________________________________________________________________________
conv4_6_x1 (Conv2D)             (None, 2, 2, 128)    126976      relu4_6_x1[0][0]                 
__________________________________________________________________________________________________
conv4_6_x2_bn (BatchNormalizati (None, 2, 2, 128)    512         conv4_6_x1[0][0]                 
__________________________________________________________________________________________________
conv4_6_x2_scale (Scale)        (None, 2, 2, 128)    256         conv4_6_x2_bn[0][0]              
__________________________________________________________________________________________________
relu4_6_x2 (Activation)         (None, 2, 2, 128)    0           conv4_6_x2_scale[0][0]           
__________________________________________________________________________________________________
conv4_6_x2_zeropadding (ZeroPad (None, 4, 4, 128)    0           relu4_6_x2[0][0]                 
__________________________________________________________________________________________________
conv4_6_x2 (Conv2D)             (None, 2, 2, 32)     36864       conv4_6_x2_zeropadding[0][0]     
__________________________________________________________________________________________________
concat_4_6 (Merge)              (None, 2, 2, 1024)   0           concat_4_5[0][0]                 
                                                                 conv4_6_x2[0][0]                 
__________________________________________________________________________________________________
conv4_7_x1_bn (BatchNormalizati (None, 2, 2, 1024)   4096        concat_4_6[0][0]                 
__________________________________________________________________________________________________
conv4_7_x1_scale (Scale)        (None, 2, 2, 1024)   2048        conv4_7_x1_bn[0][0]              
__________________________________________________________________________________________________
relu4_7_x1 (Activation)         (None, 2, 2, 1024)   0           conv4_7_x1_scale[0][0]           
__________________________________________________________________________________________________
conv4_7_x1 (Conv2D)             (None, 2, 2, 128)    131072      relu4_7_x1[0][0]                 
__________________________________________________________________________________________________
conv4_7_x2_bn (BatchNormalizati (None, 2, 2, 128)    512         conv4_7_x1[0][0]                 
__________________________________________________________________________________________________
conv4_7_x2_scale (Scale)        (None, 2, 2, 128)    256         conv4_7_x2_bn[0][0]              
__________________________________________________________________________________________________
relu4_7_x2 (Activation)         (None, 2, 2, 128)    0           conv4_7_x2_scale[0][0]           
__________________________________________________________________________________________________
conv4_7_x2_zeropadding (ZeroPad (None, 4, 4, 128)    0           relu4_7_x2[0][0]                 
__________________________________________________________________________________________________
conv4_7_x2 (Conv2D)             (None, 2, 2, 32)     36864       conv4_7_x2_zeropadding[0][0]     
__________________________________________________________________________________________________
concat_4_7 (Merge)              (None, 2, 2, 1056)   0           concat_4_6[0][0]                 
                                                                 conv4_7_x2[0][0]                 
__________________________________________________________________________________________________
conv4_8_x1_bn (BatchNormalizati (None, 2, 2, 1056)   4224        concat_4_7[0][0]                 
__________________________________________________________________________________________________
conv4_8_x1_scale (Scale)        (None, 2, 2, 1056)   2112        conv4_8_x1_bn[0][0]              
__________________________________________________________________________________________________
relu4_8_x1 (Activation)         (None, 2, 2, 1056)   0           conv4_8_x1_scale[0][0]           
__________________________________________________________________________________________________
conv4_8_x1 (Conv2D)             (None, 2, 2, 128)    135168      relu4_8_x1[0][0]                 
__________________________________________________________________________________________________
conv4_8_x2_bn (BatchNormalizati (None, 2, 2, 128)    512         conv4_8_x1[0][0]                 
__________________________________________________________________________________________________
conv4_8_x2_scale (Scale)        (None, 2, 2, 128)    256         conv4_8_x2_bn[0][0]              
__________________________________________________________________________________________________
relu4_8_x2 (Activation)         (None, 2, 2, 128)    0           conv4_8_x2_scale[0][0]           
__________________________________________________________________________________________________
conv4_8_x2_zeropadding (ZeroPad (None, 4, 4, 128)    0           relu4_8_x2[0][0]                 
__________________________________________________________________________________________________
conv4_8_x2 (Conv2D)             (None, 2, 2, 32)     36864       conv4_8_x2_zeropadding[0][0]     
__________________________________________________________________________________________________
concat_4_8 (Merge)              (None, 2, 2, 1088)   0           concat_4_7[0][0]                 
                                                                 conv4_8_x2[0][0]                 
__________________________________________________________________________________________________
conv4_9_x1_bn (BatchNormalizati (None, 2, 2, 1088)   4352        concat_4_8[0][0]                 
__________________________________________________________________________________________________
conv4_9_x1_scale (Scale)        (None, 2, 2, 1088)   2176        conv4_9_x1_bn[0][0]              
__________________________________________________________________________________________________
relu4_9_x1 (Activation)         (None, 2, 2, 1088)   0           conv4_9_x1_scale[0][0]           
__________________________________________________________________________________________________
conv4_9_x1 (Conv2D)             (None, 2, 2, 128)    139264      relu4_9_x1[0][0]                 
__________________________________________________________________________________________________
conv4_9_x2_bn (BatchNormalizati (None, 2, 2, 128)    512         conv4_9_x1[0][0]                 
__________________________________________________________________________________________________
conv4_9_x2_scale (Scale)        (None, 2, 2, 128)    256         conv4_9_x2_bn[0][0]              
__________________________________________________________________________________________________
relu4_9_x2 (Activation)         (None, 2, 2, 128)    0           conv4_9_x2_scale[0][0]           
__________________________________________________________________________________________________
conv4_9_x2_zeropadding (ZeroPad (None, 4, 4, 128)    0           relu4_9_x2[0][0]                 
__________________________________________________________________________________________________
conv4_9_x2 (Conv2D)             (None, 2, 2, 32)     36864       conv4_9_x2_zeropadding[0][0]     
__________________________________________________________________________________________________
concat_4_9 (Merge)              (None, 2, 2, 1120)   0           concat_4_8[0][0]                 
                                                                 conv4_9_x2[0][0]                 
__________________________________________________________________________________________________
conv4_10_x1_bn (BatchNormalizat (None, 2, 2, 1120)   4480        concat_4_9[0][0]                 
__________________________________________________________________________________________________
conv4_10_x1_scale (Scale)       (None, 2, 2, 1120)   2240        conv4_10_x1_bn[0][0]             
__________________________________________________________________________________________________
relu4_10_x1 (Activation)        (None, 2, 2, 1120)   0           conv4_10_x1_scale[0][0]          
__________________________________________________________________________________________________
conv4_10_x1 (Conv2D)            (None, 2, 2, 128)    143360      relu4_10_x1[0][0]                
__________________________________________________________________________________________________
conv4_10_x2_bn (BatchNormalizat (None, 2, 2, 128)    512         conv4_10_x1[0][0]                
__________________________________________________________________________________________________
conv4_10_x2_scale (Scale)       (None, 2, 2, 128)    256         conv4_10_x2_bn[0][0]             
__________________________________________________________________________________________________
relu4_10_x2 (Activation)        (None, 2, 2, 128)    0           conv4_10_x2_scale[0][0]          
__________________________________________________________________________________________________
conv4_10_x2_zeropadding (ZeroPa (None, 4, 4, 128)    0           relu4_10_x2[0][0]                
__________________________________________________________________________________________________
conv4_10_x2 (Conv2D)            (None, 2, 2, 32)     36864       conv4_10_x2_zeropadding[0][0]    
__________________________________________________________________________________________________
concat_4_10 (Merge)             (None, 2, 2, 1152)   0           concat_4_9[0][0]                 
                                                                 conv4_10_x2[0][0]                
__________________________________________________________________________________________________
conv4_11_x1_bn (BatchNormalizat (None, 2, 2, 1152)   4608        concat_4_10[0][0]                
__________________________________________________________________________________________________
conv4_11_x1_scale (Scale)       (None, 2, 2, 1152)   2304        conv4_11_x1_bn[0][0]             
__________________________________________________________________________________________________
relu4_11_x1 (Activation)        (None, 2, 2, 1152)   0           conv4_11_x1_scale[0][0]          
__________________________________________________________________________________________________
conv4_11_x1 (Conv2D)            (None, 2, 2, 128)    147456      relu4_11_x1[0][0]                
__________________________________________________________________________________________________
conv4_11_x2_bn (BatchNormalizat (None, 2, 2, 128)    512         conv4_11_x1[0][0]                
__________________________________________________________________________________________________
conv4_11_x2_scale (Scale)       (None, 2, 2, 128)    256         conv4_11_x2_bn[0][0]             
__________________________________________________________________________________________________
relu4_11_x2 (Activation)        (None, 2, 2, 128)    0           conv4_11_x2_scale[0][0]          
__________________________________________________________________________________________________
conv4_11_x2_zeropadding (ZeroPa (None, 4, 4, 128)    0           relu4_11_x2[0][0]                
__________________________________________________________________________________________________
conv4_11_x2 (Conv2D)            (None, 2, 2, 32)     36864       conv4_11_x2_zeropadding[0][0]    
__________________________________________________________________________________________________
concat_4_11 (Merge)             (None, 2, 2, 1184)   0           concat_4_10[0][0]                
                                                                 conv4_11_x2[0][0]                
__________________________________________________________________________________________________
conv4_12_x1_bn (BatchNormalizat (None, 2, 2, 1184)   4736        concat_4_11[0][0]                
__________________________________________________________________________________________________
conv4_12_x1_scale (Scale)       (None, 2, 2, 1184)   2368        conv4_12_x1_bn[0][0]             
__________________________________________________________________________________________________
relu4_12_x1 (Activation)        (None, 2, 2, 1184)   0           conv4_12_x1_scale[0][0]          
__________________________________________________________________________________________________
conv4_12_x1 (Conv2D)            (None, 2, 2, 128)    151552      relu4_12_x1[0][0]                
__________________________________________________________________________________________________
conv4_12_x2_bn (BatchNormalizat (None, 2, 2, 128)    512         conv4_12_x1[0][0]                
__________________________________________________________________________________________________
conv4_12_x2_scale (Scale)       (None, 2, 2, 128)    256         conv4_12_x2_bn[0][0]             
__________________________________________________________________________________________________
relu4_12_x2 (Activation)        (None, 2, 2, 128)    0           conv4_12_x2_scale[0][0]          
__________________________________________________________________________________________________
conv4_12_x2_zeropadding (ZeroPa (None, 4, 4, 128)    0           relu4_12_x2[0][0]                
__________________________________________________________________________________________________
conv4_12_x2 (Conv2D)            (None, 2, 2, 32)     36864       conv4_12_x2_zeropadding[0][0]    
__________________________________________________________________________________________________
concat_4_12 (Merge)             (None, 2, 2, 1216)   0           concat_4_11[0][0]                
                                                                 conv4_12_x2[0][0]                
__________________________________________________________________________________________________
conv4_blk_bn (BatchNormalizatio (None, 2, 2, 1216)   4864        concat_4_12[0][0]                
__________________________________________________________________________________________________
conv4_blk_scale (Scale)         (None, 2, 2, 1216)   2432        conv4_blk_bn[0][0]               
__________________________________________________________________________________________________
relu4_blk (Activation)          (None, 2, 2, 1216)   0           conv4_blk_scale[0][0]            
__________________________________________________________________________________________________
conv4_blk (Conv2D)              (None, 2, 2, 1216)   1478656     relu4_blk[0][0]                  
__________________________________________________________________________________________________
pool4 (AveragePooling2D)        (None, 1, 1, 1216)   0           conv4_blk[0][0]                  
__________________________________________________________________________________________________
conv5_1_x1_bn (BatchNormalizati (None, 1, 1, 1216)   4864        pool4[0][0]                      
__________________________________________________________________________________________________
conv5_1_x1_scale (Scale)        (None, 1, 1, 1216)   2432        conv5_1_x1_bn[0][0]              
__________________________________________________________________________________________________
relu5_1_x1 (Activation)         (None, 1, 1, 1216)   0           conv5_1_x1_scale[0][0]           
__________________________________________________________________________________________________
conv5_1_x1 (Conv2D)             (None, 1, 1, 128)    155648      relu5_1_x1[0][0]                 
__________________________________________________________________________________________________
conv5_1_x2_bn (BatchNormalizati (None, 1, 1, 128)    512         conv5_1_x1[0][0]                 
__________________________________________________________________________________________________
conv5_1_x2_scale (Scale)        (None, 1, 1, 128)    256         conv5_1_x2_bn[0][0]              
__________________________________________________________________________________________________
relu5_1_x2 (Activation)         (None, 1, 1, 128)    0           conv5_1_x2_scale[0][0]           
__________________________________________________________________________________________________
conv5_1_x2_zeropadding (ZeroPad (None, 3, 3, 128)    0           relu5_1_x2[0][0]                 
__________________________________________________________________________________________________
conv5_1_x2 (Conv2D)             (None, 1, 1, 32)     36864       conv5_1_x2_zeropadding[0][0]     
__________________________________________________________________________________________________
concat_5_1 (Merge)              (None, 1, 1, 1248)   0           pool4[0][0]                      
                                                                 conv5_1_x2[0][0]                 
__________________________________________________________________________________________________
conv5_2_x1_bn (BatchNormalizati (None, 1, 1, 1248)   4992        concat_5_1[0][0]                 
__________________________________________________________________________________________________
conv5_2_x1_scale (Scale)        (None, 1, 1, 1248)   2496        conv5_2_x1_bn[0][0]              
__________________________________________________________________________________________________
relu5_2_x1 (Activation)         (None, 1, 1, 1248)   0           conv5_2_x1_scale[0][0]           
__________________________________________________________________________________________________
conv5_2_x1 (Conv2D)             (None, 1, 1, 128)    159744      relu5_2_x1[0][0]                 
__________________________________________________________________________________________________
conv5_2_x2_bn (BatchNormalizati (None, 1, 1, 128)    512         conv5_2_x1[0][0]                 
__________________________________________________________________________________________________
conv5_2_x2_scale (Scale)        (None, 1, 1, 128)    256         conv5_2_x2_bn[0][0]              
__________________________________________________________________________________________________
relu5_2_x2 (Activation)         (None, 1, 1, 128)    0           conv5_2_x2_scale[0][0]           
__________________________________________________________________________________________________
conv5_2_x2_zeropadding (ZeroPad (None, 3, 3, 128)    0           relu5_2_x2[0][0]                 
__________________________________________________________________________________________________
conv5_2_x2 (Conv2D)             (None, 1, 1, 32)     36864       conv5_2_x2_zeropadding[0][0]     
__________________________________________________________________________________________________
concat_5_2 (Merge)              (None, 1, 1, 1280)   0           concat_5_1[0][0]                 
                                                                 conv5_2_x2[0][0]                 
__________________________________________________________________________________________________
conv5_3_x1_bn (BatchNormalizati (None, 1, 1, 1280)   5120        concat_5_2[0][0]                 
__________________________________________________________________________________________________
conv5_3_x1_scale (Scale)        (None, 1, 1, 1280)   2560        conv5_3_x1_bn[0][0]              
__________________________________________________________________________________________________
relu5_3_x1 (Activation)         (None, 1, 1, 1280)   0           conv5_3_x1_scale[0][0]           
__________________________________________________________________________________________________
conv5_3_x1 (Conv2D)             (None, 1, 1, 128)    163840      relu5_3_x1[0][0]                 
__________________________________________________________________________________________________
conv5_3_x2_bn (BatchNormalizati (None, 1, 1, 128)    512         conv5_3_x1[0][0]                 
__________________________________________________________________________________________________
conv5_3_x2_scale (Scale)        (None, 1, 1, 128)    256         conv5_3_x2_bn[0][0]              
__________________________________________________________________________________________________
relu5_3_x2 (Activation)         (None, 1, 1, 128)    0           conv5_3_x2_scale[0][0]           
__________________________________________________________________________________________________
conv5_3_x2_zeropadding (ZeroPad (None, 3, 3, 128)    0           relu5_3_x2[0][0]                 
__________________________________________________________________________________________________
conv5_3_x2 (Conv2D)             (None, 1, 1, 32)     36864       conv5_3_x2_zeropadding[0][0]     
__________________________________________________________________________________________________
concat_5_3 (Merge)              (None, 1, 1, 1312)   0           concat_5_2[0][0]                 
                                                                 conv5_3_x2[0][0]                 
__________________________________________________________________________________________________
conv5_4_x1_bn (BatchNormalizati (None, 1, 1, 1312)   5248        concat_5_3[0][0]                 
__________________________________________________________________________________________________
conv5_4_x1_scale (Scale)        (None, 1, 1, 1312)   2624        conv5_4_x1_bn[0][0]              
__________________________________________________________________________________________________
relu5_4_x1 (Activation)         (None, 1, 1, 1312)   0           conv5_4_x1_scale[0][0]           
__________________________________________________________________________________________________
conv5_4_x1 (Conv2D)             (None, 1, 1, 128)    167936      relu5_4_x1[0][0]                 
__________________________________________________________________________________________________
conv5_4_x2_bn (BatchNormalizati (None, 1, 1, 128)    512         conv5_4_x1[0][0]                 
__________________________________________________________________________________________________
conv5_4_x2_scale (Scale)        (None, 1, 1, 128)    256         conv5_4_x2_bn[0][0]              
__________________________________________________________________________________________________
relu5_4_x2 (Activation)         (None, 1, 1, 128)    0           conv5_4_x2_scale[0][0]           
__________________________________________________________________________________________________
conv5_4_x2_zeropadding (ZeroPad (None, 3, 3, 128)    0           relu5_4_x2[0][0]                 
__________________________________________________________________________________________________
conv5_4_x2 (Conv2D)             (None, 1, 1, 32)     36864       conv5_4_x2_zeropadding[0][0]     
__________________________________________________________________________________________________
concat_5_4 (Merge)              (None, 1, 1, 1344)   0           concat_5_3[0][0]                 
                                                                 conv5_4_x2[0][0]                 
__________________________________________________________________________________________________
conv5_5_x1_bn (BatchNormalizati (None, 1, 1, 1344)   5376        concat_5_4[0][0]                 
__________________________________________________________________________________________________
conv5_5_x1_scale (Scale)        (None, 1, 1, 1344)   2688        conv5_5_x1_bn[0][0]              
__________________________________________________________________________________________________
relu5_5_x1 (Activation)         (None, 1, 1, 1344)   0           conv5_5_x1_scale[0][0]           
__________________________________________________________________________________________________
conv5_5_x1 (Conv2D)             (None, 1, 1, 128)    172032      relu5_5_x1[0][0]                 
__________________________________________________________________________________________________
conv5_5_x2_bn (BatchNormalizati (None, 1, 1, 128)    512         conv5_5_x1[0][0]                 
__________________________________________________________________________________________________
conv5_5_x2_scale (Scale)        (None, 1, 1, 128)    256         conv5_5_x2_bn[0][0]              
__________________________________________________________________________________________________
relu5_5_x2 (Activation)         (None, 1, 1, 128)    0           conv5_5_x2_scale[0][0]           
__________________________________________________________________________________________________
conv5_5_x2_zeropadding (ZeroPad (None, 3, 3, 128)    0           relu5_5_x2[0][0]                 
__________________________________________________________________________________________________
conv5_5_x2 (Conv2D)             (None, 1, 1, 32)     36864       conv5_5_x2_zeropadding[0][0]     
__________________________________________________________________________________________________
concat_5_5 (Merge)              (None, 1, 1, 1376)   0           concat_5_4[0][0]                 
                                                                 conv5_5_x2[0][0]                 
__________________________________________________________________________________________________
conv5_6_x1_bn (BatchNormalizati (None, 1, 1, 1376)   5504        concat_5_5[0][0]                 
__________________________________________________________________________________________________
conv5_6_x1_scale (Scale)        (None, 1, 1, 1376)   2752        conv5_6_x1_bn[0][0]              
__________________________________________________________________________________________________
relu5_6_x1 (Activation)         (None, 1, 1, 1376)   0           conv5_6_x1_scale[0][0]           
__________________________________________________________________________________________________
conv5_6_x1 (Conv2D)             (None, 1, 1, 128)    176128      relu5_6_x1[0][0]                 
__________________________________________________________________________________________________
conv5_6_x2_bn (BatchNormalizati (None, 1, 1, 128)    512         conv5_6_x1[0][0]                 
__________________________________________________________________________________________________
conv5_6_x2_scale (Scale)        (None, 1, 1, 128)    256         conv5_6_x2_bn[0][0]              
__________________________________________________________________________________________________
relu5_6_x2 (Activation)         (None, 1, 1, 128)    0           conv5_6_x2_scale[0][0]           
__________________________________________________________________________________________________
conv5_6_x2_zeropadding (ZeroPad (None, 3, 3, 128)    0           relu5_6_x2[0][0]                 
__________________________________________________________________________________________________
conv5_6_x2 (Conv2D)             (None, 1, 1, 32)     36864       conv5_6_x2_zeropadding[0][0]     
__________________________________________________________________________________________________
concat_5_6 (Merge)              (None, 1, 1, 1408)   0           concat_5_5[0][0]                 
                                                                 conv5_6_x2[0][0]                 
__________________________________________________________________________________________________
conv5_7_x1_bn (BatchNormalizati (None, 1, 1, 1408)   5632        concat_5_6[0][0]                 
__________________________________________________________________________________________________
conv5_7_x1_scale (Scale)        (None, 1, 1, 1408)   2816        conv5_7_x1_bn[0][0]              
__________________________________________________________________________________________________
relu5_7_x1 (Activation)         (None, 1, 1, 1408)   0           conv5_7_x1_scale[0][0]           
__________________________________________________________________________________________________
conv5_7_x1 (Conv2D)             (None, 1, 1, 128)    180224      relu5_7_x1[0][0]                 
__________________________________________________________________________________________________
conv5_7_x2_bn (BatchNormalizati (None, 1, 1, 128)    512         conv5_7_x1[0][0]                 
__________________________________________________________________________________________________
conv5_7_x2_scale (Scale)        (None, 1, 1, 128)    256         conv5_7_x2_bn[0][0]              
__________________________________________________________________________________________________
relu5_7_x2 (Activation)         (None, 1, 1, 128)    0           conv5_7_x2_scale[0][0]           
__________________________________________________________________________________________________
conv5_7_x2_zeropadding (ZeroPad (None, 3, 3, 128)    0           relu5_7_x2[0][0]                 
__________________________________________________________________________________________________
conv5_7_x2 (Conv2D)             (None, 1, 1, 32)     36864       conv5_7_x2_zeropadding[0][0]     
__________________________________________________________________________________________________
concat_5_7 (Merge)              (None, 1, 1, 1440)   0           concat_5_6[0][0]                 
                                                                 conv5_7_x2[0][0]                 
__________________________________________________________________________________________________
conv5_8_x1_bn (BatchNormalizati (None, 1, 1, 1440)   5760        concat_5_7[0][0]                 
__________________________________________________________________________________________________
conv5_8_x1_scale (Scale)        (None, 1, 1, 1440)   2880        conv5_8_x1_bn[0][0]              
__________________________________________________________________________________________________
relu5_8_x1 (Activation)         (None, 1, 1, 1440)   0           conv5_8_x1_scale[0][0]           
__________________________________________________________________________________________________
conv5_8_x1 (Conv2D)             (None, 1, 1, 128)    184320      relu5_8_x1[0][0]                 
__________________________________________________________________________________________________
conv5_8_x2_bn (BatchNormalizati (None, 1, 1, 128)    512         conv5_8_x1[0][0]                 
__________________________________________________________________________________________________
conv5_8_x2_scale (Scale)        (None, 1, 1, 128)    256         conv5_8_x2_bn[0][0]              
__________________________________________________________________________________________________
relu5_8_x2 (Activation)         (None, 1, 1, 128)    0           conv5_8_x2_scale[0][0]           
__________________________________________________________________________________________________
conv5_8_x2_zeropadding (ZeroPad (None, 3, 3, 128)    0           relu5_8_x2[0][0]                 
__________________________________________________________________________________________________
conv5_8_x2 (Conv2D)             (None, 1, 1, 32)     36864       conv5_8_x2_zeropadding[0][0]     
__________________________________________________________________________________________________
concat_5_8 (Merge)              (None, 1, 1, 1472)   0           concat_5_7[0][0]                 
                                                                 conv5_8_x2[0][0]                 
__________________________________________________________________________________________________
conv5_9_x1_bn (BatchNormalizati (None, 1, 1, 1472)   5888        concat_5_8[0][0]                 
__________________________________________________________________________________________________
conv5_9_x1_scale (Scale)        (None, 1, 1, 1472)   2944        conv5_9_x1_bn[0][0]              
__________________________________________________________________________________________________
relu5_9_x1 (Activation)         (None, 1, 1, 1472)   0           conv5_9_x1_scale[0][0]           
__________________________________________________________________________________________________
conv5_9_x1 (Conv2D)             (None, 1, 1, 128)    188416      relu5_9_x1[0][0]                 
__________________________________________________________________________________________________
conv5_9_x2_bn (BatchNormalizati (None, 1, 1, 128)    512         conv5_9_x1[0][0]                 
__________________________________________________________________________________________________
conv5_9_x2_scale (Scale)        (None, 1, 1, 128)    256         conv5_9_x2_bn[0][0]              
__________________________________________________________________________________________________
relu5_9_x2 (Activation)         (None, 1, 1, 128)    0           conv5_9_x2_scale[0][0]           
__________________________________________________________________________________________________
conv5_9_x2_zeropadding (ZeroPad (None, 3, 3, 128)    0           relu5_9_x2[0][0]                 
__________________________________________________________________________________________________
conv5_9_x2 (Conv2D)             (None, 1, 1, 32)     36864       conv5_9_x2_zeropadding[0][0]     
__________________________________________________________________________________________________
concat_5_9 (Merge)              (None, 1, 1, 1504)   0           concat_5_8[0][0]                 
                                                                 conv5_9_x2[0][0]                 
__________________________________________________________________________________________________
conv5_10_x1_bn (BatchNormalizat (None, 1, 1, 1504)   6016        concat_5_9[0][0]                 
__________________________________________________________________________________________________
conv5_10_x1_scale (Scale)       (None, 1, 1, 1504)   3008        conv5_10_x1_bn[0][0]             
__________________________________________________________________________________________________
relu5_10_x1 (Activation)        (None, 1, 1, 1504)   0           conv5_10_x1_scale[0][0]          
__________________________________________________________________________________________________
conv5_10_x1 (Conv2D)            (None, 1, 1, 128)    192512      relu5_10_x1[0][0]                
__________________________________________________________________________________________________
conv5_10_x2_bn (BatchNormalizat (None, 1, 1, 128)    512         conv5_10_x1[0][0]                
__________________________________________________________________________________________________
conv5_10_x2_scale (Scale)       (None, 1, 1, 128)    256         conv5_10_x2_bn[0][0]             
__________________________________________________________________________________________________
relu5_10_x2 (Activation)        (None, 1, 1, 128)    0           conv5_10_x2_scale[0][0]          
__________________________________________________________________________________________________
conv5_10_x2_zeropadding (ZeroPa (None, 3, 3, 128)    0           relu5_10_x2[0][0]                
__________________________________________________________________________________________________
conv5_10_x2 (Conv2D)            (None, 1, 1, 32)     36864       conv5_10_x2_zeropadding[0][0]    
__________________________________________________________________________________________________
concat_5_10 (Merge)             (None, 1, 1, 1536)   0           concat_5_9[0][0]                 
                                                                 conv5_10_x2[0][0]                
__________________________________________________________________________________________________
conv5_11_x1_bn (BatchNormalizat (None, 1, 1, 1536)   6144        concat_5_10[0][0]                
__________________________________________________________________________________________________
conv5_11_x1_scale (Scale)       (None, 1, 1, 1536)   3072        conv5_11_x1_bn[0][0]             
__________________________________________________________________________________________________
relu5_11_x1 (Activation)        (None, 1, 1, 1536)   0           conv5_11_x1_scale[0][0]          
__________________________________________________________________________________________________
conv5_11_x1 (Conv2D)            (None, 1, 1, 128)    196608      relu5_11_x1[0][0]                
__________________________________________________________________________________________________
conv5_11_x2_bn (BatchNormalizat (None, 1, 1, 128)    512         conv5_11_x1[0][0]                
__________________________________________________________________________________________________
conv5_11_x2_scale (Scale)       (None, 1, 1, 128)    256         conv5_11_x2_bn[0][0]             
__________________________________________________________________________________________________
relu5_11_x2 (Activation)        (None, 1, 1, 128)    0           conv5_11_x2_scale[0][0]          
__________________________________________________________________________________________________
conv5_11_x2_zeropadding (ZeroPa (None, 3, 3, 128)    0           relu5_11_x2[0][0]                
__________________________________________________________________________________________________
conv5_11_x2 (Conv2D)            (None, 1, 1, 32)     36864       conv5_11_x2_zeropadding[0][0]    
__________________________________________________________________________________________________
concat_5_11 (Merge)             (None, 1, 1, 1568)   0           concat_5_10[0][0]                
                                                                 conv5_11_x2[0][0]                
__________________________________________________________________________________________________
conv5_12_x1_bn (BatchNormalizat (None, 1, 1, 1568)   6272        concat_5_11[0][0]                
__________________________________________________________________________________________________
conv5_12_x1_scale (Scale)       (None, 1, 1, 1568)   3136        conv5_12_x1_bn[0][0]             
__________________________________________________________________________________________________
relu5_12_x1 (Activation)        (None, 1, 1, 1568)   0           conv5_12_x1_scale[0][0]          
__________________________________________________________________________________________________
conv5_12_x1 (Conv2D)            (None, 1, 1, 128)    200704      relu5_12_x1[0][0]                
__________________________________________________________________________________________________
conv5_12_x2_bn (BatchNormalizat (None, 1, 1, 128)    512         conv5_12_x1[0][0]                
__________________________________________________________________________________________________
conv5_12_x2_scale (Scale)       (None, 1, 1, 128)    256         conv5_12_x2_bn[0][0]             
__________________________________________________________________________________________________
relu5_12_x2 (Activation)        (None, 1, 1, 128)    0           conv5_12_x2_scale[0][0]          
__________________________________________________________________________________________________
conv5_12_x2_zeropadding (ZeroPa (None, 3, 3, 128)    0           relu5_12_x2[0][0]                
__________________________________________________________________________________________________
conv5_12_x2 (Conv2D)            (None, 1, 1, 32)     36864       conv5_12_x2_zeropadding[0][0]    
__________________________________________________________________________________________________
concat_5_12 (Merge)             (None, 1, 1, 1600)   0           concat_5_11[0][0]                
                                                                 conv5_12_x2[0][0]                
__________________________________________________________________________________________________
conv5_blk_bn (BatchNormalizatio (None, 1, 1, 1600)   6400        concat_5_12[0][0]                
__________________________________________________________________________________________________
conv5_blk_scale (Scale)         (None, 1, 1, 1600)   3200        conv5_blk_bn[0][0]               
__________________________________________________________________________________________________
relu5_blk (Activation)          (None, 1, 1, 1600)   0           conv5_blk_scale[0][0]            
__________________________________________________________________________________________________
pool5 (GlobalAveragePooling2D)  (None, 1600)         0           relu5_blk[0][0]                  
__________________________________________________________________________________________________
fc6 (Dense)                     (None, 100)          160100      pool5[0][0]                      
__________________________________________________________________________________________________
prob (Activation)               (None, 100)          0           fc6[0][0]                        
==================================================================================================
Total params: 9,620,900
Trainable params: 9,521,956
Non-trainable params: 98,944
__________________________________________________________________________________________________
None
